…
t_head.transform.dense.weight']
- This IS expected if you are initializing LxmertModel from the checkpoint of a model trained on another task or with another architecture (e.g. initializing a BertForSequenceClassification model from a BertForPreTraining model).
- This IS NOT expected if you are initializing LxmertModel from the checkpoint of a model that you expect to be exactly identical (initializing a BertForSequenceClassification model from a BertForSequenceClassification model).
LxmertForQuestionAnswering(
  (lxmert): LxmertModel(
    (embeddings): LxmertEmbeddings(
      (word_embeddings): Embedding(30522, 768, padding_idx=0)
      (position_embeddings): Embedding(512, 768, padding_idx=0)
      (token_type_embeddings): Embedding(2, 768, padding_idx=0)
      (LayerNorm): LayerNorm((768,), eps=1e-12, elementwise_affine=True)
      (dropout): Dropout(p=0.1, inplace=False)
    )
    (encoder): LxmertEncoder(
      (visn_fc): LxmertVisualFeatureEncoder(
        (visn_fc): Linear(in_features=2048, out_features=768, bias=True)
        (visn_layer_norm): LayerNorm((768,), eps=1e-12, elementwise_affine=True)
        (box_fc): Linear(in_features=4, out_features=768, bias=True)
        (box_layer_norm): LayerNorm((768,), eps=1e-12, elementwise_affine=True)
        (dropout): Dropout(p=0.1, inplace=False)
      )
      (layer): ModuleList(
        (0-8): 9 x LxmertLayer(
          (attention): LxmertSelfAttentionLayer(
            (self): LxmertAttention(
              (query): Linear(in_features=768, out_features=768, bias=True)
              (key): Linear(in_features=768, out_features=768, bias=True)
              (value): Linear(in_features=768, out_features=768, bias=True)
              (dropout): Dropout(p=0.1, inplace=False)
            )
            (output): LxmertAttentionOutput(
              (dense): Linear(in_features=768, out_features=768, bias=True)
              (LayerNorm): LayerNorm((768,), eps=1e-12, elementwise_affine=True)
              (dropout): Dropout(p=0.1, inplace=False)
            )
          )
          (intermediate): LxmertIntermediate(
            (dense): Linear(in_features=768, out_features=3072, bias=True)
            (intermediate_act_fn): GELUActivation()
          )
          (output): LxmertOutput(
            (dense): Linear(in_features=3072, out_features=768, bias=True)
            (LayerNorm): LayerNorm((768,), eps=1e-12, elementwise_affine=True)
            (dropout): Dropout(p=0.1, inplace=False)
          )
        )
      )
      (x_layers): ModuleList(
        (0-4): 5 x LxmertXLayer(
          (visual_attention): LxmertCrossAttentionLayer(
            (att): LxmertAttention(
              (query): Linear(in_features=768, out_features=768, bias=True)
              (key): Linear(in_features=768, out_features=768, bias=True)
              (value): Linear(in_features=768, out_features=768, bias=True)
              (dropout): Dropout(p=0.1, inplace=False)
            )
            (output): LxmertAttentionOutput(
              (dense): Linear(in_features=768, out_features=768, bias=True)
              (LayerNorm): LayerNorm((768,), eps=1e-12, elementwise_affine=True)
              (dropout): Dropout(p=0.1, inplace=False)
            )
          )
          (lang_self_att): LxmertSelfAttentionLayer(
            (self): LxmertAttention(
              (query): Linear(in_features=768, out_features=768, bias=True)
              (key): Linear(in_features=768, out_features=768, bias=True)
              (value): Linear(in_features=768, out_features=768, bias=True)
              (dropout): Dropout(p=0.1, inplace=False)
            )
            (output): LxmertAttentionOutput(
              (dense): Linear(in_features=768, out_features=768, bias=True)
              (LayerNorm): LayerNorm((768,), eps=1e-12, elementwise_affine=True)
              (dropout): Dropout(p=0.1, inplace=False)
            )
          )
          (visn_self_att): LxmertSelfAttentionLayer(
            (self): LxmertAttention(
              (query): Linear(in_features=768, out_features=768, bias=True)
              (key): Linear(in_features=768, out_features=768, bias=True)
              (value): Linear(in_features=768, out_features=768, bias=True)
              (dropout): Dropout(p=0.1, inplace=False)
            )
            (output): LxmertAttentionOutput(
              (dense): Linear(in_features=768, out_features=768, bias=True)
              (LayerNorm): LayerNorm((768,), eps=1e-12, elementwise_affine=True)
              (dropout): Dropout(p=0.1, inplace=False)
            )
          )
          (lang_inter): LxmertIntermediate(
            (dense): Linear(in_features=768, out_features=3072, bias=True)
            (intermediate_act_fn): GELUActivation()
          )
          (lang_output): LxmertOutput(
            (dense): Linear(in_features=3072, out_features=768, bias=True)
            (LayerNorm): LayerNorm((768,), eps=1e-12, elementwise_affine=True)
            (dropout): Dropout(p=0.1, inplace=False)
          )
          (visn_inter): LxmertIntermediate(
            (dense): Linear(in_features=768, out_features=3072, bias=True)
            (intermediate_act_fn): GELUActivation()
          )
          (visn_output): LxmertOutput(
            (dense): Linear(in_features=3072, out_features=768, bias=True)
            (LayerNorm): LayerNorm((768,), eps=1e-12, elementwise_affine=True)
            (dropout): Dropout(p=0.1, inplace=False)
          )
        )
      )
      (r_layers): ModuleList(
        (0-4): 5 x LxmertLayer(
          (attention): LxmertSelfAttentionLayer(
            (self): LxmertAttention(
              (query): Linear(in_features=768, out_features=768, bias=True)
              (key): Linear(in_features=768, out_features=768, bias=True)
              (value): Linear(in_features=768, out_features=768, bias=True)
              (dropout): Dropout(p=0.1, inplace=False)
            )
            (output): LxmertAttentionOutput(
              (dense): Linear(in_features=768, out_features=768, bias=True)
              (LayerNorm): LayerNorm((768,), eps=1e-12, elementwise_affine=True)
              (dropout): Dropout(p=0.1, inplace=False)
            )
          )
          (intermediate): LxmertIntermediate(
            (dense): Linear(in_features=768, out_features=3072, bias=True)
            (intermediate_act_fn): GELUActivation()
          )
          (output): LxmertOutput(
            (dense): Linear(in_features=3072, out_features=768, bias=True)
            (LayerNorm): LayerNorm((768,), eps=1e-12, elementwise_affine=True)
            (dropout): Dropout(p=0.1, inplace=False)
          )
        )
      )
    )
    (pooler): LxmertPooler(
      (dense): Linear(in_features=768, out_features=768, bias=True)
      (activation): Tanh()
    )
  )
  (cls): Sequential(
    (0): Linear(in_features=768, out_features=3129, bias=True)
  )
  (dropout): Dropout(p=0.1, inplace=False)
)
0it [00:00, ?it/s]Loss: 11.949912071228027 0
1it [00:09,  9.34s/it]2it [00:18,  9.30s/it]3it [00:28,  9.46s/it]4it [00:37,  9.57s/it]5it [00:46,  9.31s/it]6it [00:56,  9.41s/it]7it [01:06,  9.54s/it]8it [01:16,  9.64s/it]9it [01:25,  9.42s/it]10it [01:34,  9.32s/it]Loss: 8.697395324707031 10
11it [01:43,  9.34s/it]12it [01:52,  9.37s/it]13it [02:02,  9.40s/it]14it [02:11,  9.32s/it]15it [02:20,  9.21s/it]16it [02:29,  9.26s/it]17it [02:38,  9.17s/it]18it [02:48,  9.40s/it]19it [02:57,  9.29s/it]20it [03:07,  9.32s/it]Loss: 7.69062614440918 20
…
