…
        [0.0000e+00, 8.0052e-03, 1.1260e-02,  ..., 0.0000e+00, 2.0464e+00,
         2.7543e-02]]), 'visual_token_type_ids': tensor([1, 1, 1, 1, 1, 1, 1, 1, 1, 1, 1, 1, 1, 1, 1, 1, 1, 1, 1, 1, 1, 1, 1, 1,
        1, 1, 1, 1, 1, 1, 1, 1, 1, 1, 1, 1]), 'visual_attention_mask': tensor([1., 1., 1., 1., 1., 1., 1., 1., 1., 1., 1., 1., 1., 1., 1., 1., 1., 1.,
        1., 1., 1., 1., 1., 1., 1., 1., 1., 1., 1., 1., 1., 1., 1., 1., 1., 1.]), 'labels': tensor([1., 0., 0.,  ..., 0., 0., 0.])}
VisualBertForQuestionAnswering(
  (visual_bert): VisualBertModel(
    (embeddings): VisualBertEmbeddings(
      (word_embeddings): Embedding(30522, 768, padding_idx=1)
      (position_embeddings): Embedding(512, 768)
      (token_type_embeddings): Embedding(2, 768)
      (LayerNorm): LayerNorm((768,), eps=1e-12, elementwise_affine=True)
      (dropout): Dropout(p=0.1, inplace=False)
      (visual_token_type_embeddings): Embedding(2, 768)
      (visual_position_embeddings): Embedding(512, 768)
      (visual_projection): Linear(in_features=2048, out_features=768, bias=True)
    )
    (encoder): VisualBertEncoder(
      (layer): ModuleList(
        (0-11): 12 x VisualBertLayer(
          (attention): VisualBertAttention(
            (self): VisualBertSelfAttention(
              (query): Linear(in_features=768, out_features=768, bias=True)
              (key): Linear(in_features=768, out_features=768, bias=True)
              (value): Linear(in_features=768, out_features=768, bias=True)
              (dropout): Dropout(p=0.1, inplace=False)
            )
            (output): VisualBertSelfOutput(
              (dense): Linear(in_features=768, out_features=768, bias=True)
              (LayerNorm): LayerNorm((768,), eps=1e-12, elementwise_affine=True)
              (dropout): Dropout(p=0.1, inplace=False)
            )
          )
          (intermediate): VisualBertIntermediate(
            (dense): Linear(in_features=768, out_features=3072, bias=True)
            (intermediate_act_fn): GELUActivation()
          )
          (output): VisualBertOutput(
            (dense): Linear(in_features=3072, out_features=768, bias=True)
            (LayerNorm): LayerNorm((768,), eps=1e-12, elementwise_affine=True)
            (dropout): Dropout(p=0.1, inplace=False)
          )
        )
      )
    )
    (pooler): VisualBertPooler(
      (dense): Linear(in_features=768, out_features=768, bias=True)
      (activation): Tanh()
    )
  )
  (dropout): Dropout(p=0.1, inplace=False)
  (cls): Linear(in_features=768, out_features=3129, bias=True)
)
0it [00:00, ?it/s]Loss: 18.401966094970703 0
1it [00:07,  7.85s/it]2it [00:13,  6.63s/it]3it [00:20,  6.62s/it]4it [00:27,  6.87s/it]5it [00:33,  6.73s/it]6it [00:40,  6.53s/it]7it [00:46,  6.60s/it]8it [00:53,  6.75s/it]9it [00:59,  6.50s/it]10it [01:06,  6.64s/it]Loss: 8.112715721130371 10
11it [01:14,  6.93s/it]12it [01:20,  6.53s/it]13it [01:26,  6.42s/it]14it [01:33,  6.78s/it]15it [01:41,  6.91s/it]16it [01:47,  6.69s/it]17it [01:53,  6.65s/it]18it [02:01,  6.89s/it]19it [02:07,  6.71s/it]20it [02:13,  6.40s/it]Loss: 7.60254430770874 20
…
