…
Some weights of VisualBertForQuestionAnswering were not initialized from the model checkpoint at uclanlp/visualbert-vqa and are newly initialized because the shapes did not match:
- cls.weight: found shape torch.Size([3129, 768]) in the checkpoint and torch.Size([3, 768]) in the model instantiated
- cls.bias: found shape torch.Size([3129]) in the checkpoint and torch.Size([3]) in the model instantiated
You should probably TRAIN this model on a down-stream task to be able to use it for predictions and inference.
right file execution
Prepared 401,717 e‑SNLI‑VE samples
VisualBertForQuestionAnswering(
  (visual_bert): VisualBertModel(
    (embeddings): VisualBertEmbeddings(
      (word_embeddings): Embedding(30522, 768, padding_idx=1)
      (position_embeddings): Embedding(512, 768)
      (token_type_embeddings): Embedding(2, 768)
      (LayerNorm): LayerNorm((768,), eps=1e-12, elementwise_affine=True)
      (dropout): Dropout(p=0.1, inplace=False)
      (visual_token_type_embeddings): Embedding(2, 768)
      (visual_position_embeddings): Embedding(512, 768)
      (visual_projection): Linear(in_features=2048, out_features=768, bias=True)
    )
    (encoder): VisualBertEncoder(
      (layer): ModuleList(
        (0-11): 12 x VisualBertLayer(
          (attention): VisualBertAttention(
            (self): VisualBertSelfAttention(
              (query): Linear(in_features=768, out_features=768, bias=True)
              (key): Linear(in_features=768, out_features=768, bias=True)
              (value): Linear(in_features=768, out_features=768, bias=True)
              (dropout): Dropout(p=0.1, inplace=False)
            )
            (output): VisualBertSelfOutput(
              (dense): Linear(in_features=768, out_features=768, bias=True)
              (LayerNorm): LayerNorm((768,), eps=1e-12, elementwise_affine=True)
              (dropout): Dropout(p=0.1, inplace=False)
            )
          )
          (intermediate): VisualBertIntermediate(
            (dense): Linear(in_features=768, out_features=3072, bias=True)
            (intermediate_act_fn): GELUActivation()
          )
          (output): VisualBertOutput(
            (dense): Linear(in_features=3072, out_features=768, bias=True)
            (LayerNorm): LayerNorm((768,), eps=1e-12, elementwise_affine=True)
            (dropout): Dropout(p=0.1, inplace=False)
          )
        )
      )
    )
    (pooler): VisualBertPooler(
      (dense): Linear(in_features=768, out_features=768, bias=True)
      (activation): Tanh()
    )
  )
  (dropout): Dropout(p=0.1, inplace=False)
  (cls): Linear(in_features=768, out_features=3, bias=True)
)
  0%|          | 0/6277 [00:00<?, ?it/s]  0%|          | 1/6277 [00:03<6:54:33,  3.96s/it]  0%|          | 2/6277 [00:07<6:08:47,  3.53s/it]  0%|          | 3/6277 [00:10<5:47:03,  3.32s/it]  0%|          | 4/6277 [00:13<5:29:05,  3.15s/it]  0%|          | 5/6277 [00:16<5:30:55,  3.17s/it]  0%|          | 6/6277 [00:19<5:28:51,  3.15s/it]  0%| 
…
